…
[rank4]:[titan] 2026-05-03 08:48:27,266 - root - INFO - [34mModel kimi_linear kimi_linear_436m_block_attn_res_n4 [31msize: 1,201,640,636 total parameters[39m
[rank4]:[titan] 2026-05-03 08:48:27,266 - root - INFO - Compiling the loss function with torch.compile
[rank4]:/root/torchtitan_attention_residual/torchtitan/torchtitan/experiments/kimi_linear/parallelize.py:421: UserWarning: Parallelize plan key 'embed_tokens' could not be resolved: no submodule matching token 'embed_tokens' in module KimiLinearAttnResModel(
[rank4]:  (embed_tokens): None
[rank4]:  (layers): ModuleDict(
[rank4]:    (2): KimiAttnResDecoderLayer(
[rank4]:      (self_attn): KimiDeltaAttention(
[rank4]:        (q_proj): Linear(in_features=1168, out_features=1168, bias=False)
[rank4]:        (k_proj): Linear(in_features=1168, out_features=1168, bias=False)
[rank4]:        (v_proj): Linear(in_features=1168, out_features=1168, bias=False)
[rank4]:        (q_conv1d): ShortConvolution(1168, 1168, kernel_size=(4,), stride=(1,), padding=(3,), groups=1168, bias=False, activation=silu, backend=triton)
[rank4]:        (k_conv1d): ShortConvolution(1168, 1168, kernel_size=(4,), stride=(1,), padding=(3,), groups=1168, bias=False, activation=silu, backend=triton)
[rank4]:        (v_conv1d): ShortConvolution(1168, 1168, kernel_size=(4,), stride=(1,), padding=(3,), groups=1168, bias=False, activation=silu, backend=triton)
[rank4]:        (f_a_proj): Linear(in_features=1168, out_features=73, bias=False)
[rank4]:        (f_b_proj): Linear(in_features=73, out_features=1168, bias=False)
[rank4]:        (g_a_proj): Linear(in_features=1168, out_features=73, bias=False)
[rank4]:        (g_b_proj): Linear(in_features=73, out_features=1168, bias=False)
[rank4]:        (b_proj): Linear(in_features=1168, out_features=16, bias=False)
[rank4]:        (o_norm): FusedRMSNormGated(73, eps=1e-05, activation=sigmoid)
[rank4]:        (o_proj): Linear(in_features=1168, out_features=1168, bias=False)
[rank4]:      )
[rank4]:      (ffn): KimiMoE(
[rank4]:        (_moe): MoE(
[rank4]:          (experts): GroupedExperts()
[rank4]:          (router): TokenChoiceTopKRouter(
[rank4]:            (gate): Linear(in_features=1168, out_features=32, bias=False)
[rank4]:          )
[rank4]:          (reorderer): TokenReorderer()
[rank4]:          (shared_experts): FeedForward(
[rank4]:            (w1): Linear(in_features=1168, out_features=528, bias=False)
[rank4]:            (w2): Linear(in_features=528, out_features=1168, bias=False)
[rank4]:            (w3): Linear(in_features=1168, out_features=528, bias=False)
[rank4]:          )
[rank4]:        )
[rank4]:      )
[rank4]:      (input_layernorm): RMSNorm((1168,), eps=1e-05, elementwise_affine=True)
[rank4]:      (post_attention_layernorm): RMSNorm((1168,), eps=1e-05, elementwise_affine=True)
[rank4]:      (attn_res_proj): AttnResProjection(in_features=1168, out_features=1, bias=False)
[rank4]:      (mlp_res_proj): AttnResProjection(in_features=1168, out_features=1, bias=False)
[rank4]:      (attn_res_norm): RMSNorm((1168,), eps=1e-05, elementwise_affine=True)
[rank4]:      (mlp_res_norm): RMSNorm((1168,), eps=1e-05, elementwise_affine=True)
[rank4]:    )
[rank4]:    (3): KimiAttnResDecoderLayer(
[rank4]:      (self_attn): KimiMLAAttention(
[rank4]:        (q_proj): Linear(in_features=1168, out_features=1744, bias=False)
[rank4]:        (kv_a_proj_with_mqa): Linear(in_features=1168, out_features=620, bias=False)
[rank4]:        (kv_a_layernorm): RMSNorm((584,), eps=1e-05, elementwise_affine=True)
[rank4]:        (kv_b_proj): Linear(in_features=584, out_features=2336, bias=False)
[rank4]:        (o_proj): Linear(in_features=1168, out_features=1168, bias=False)
[rank4]:        (inner_attention): KimiMLAInnerAttention()
[rank4]:      )
[rank4]:      (ffn): KimiMoE(
[rank4]:        (_moe): MoE(
[rank4]:          (experts): GroupedExperts()
[rank4]:          (router): TokenChoiceTopKRouter(
[rank4]:            (gate): Linear(in_features=1168, out_features=32, bias=False)
[rank4]:          )
[rank4]:          (reorderer): TokenReorderer()
[rank4]:          (shared_experts): FeedForward(
[rank4]:            (w1): Linear(in_features=1168, out_features=528, bias=False)
[rank4]:            (w2): Linear(in_features=528, out_features=1168, bias=False)
[rank4]:            (w3): Linear(in_features=1168, out_features=528, bias=False)
[rank4]:          )
[rank4]:        )
[rank4]:      )
[rank4]:      (input_layernorm): RMSNorm((1168,), eps=1e-05, elementwise_affine=True)
[rank4]:      (post_attention_layernorm): RMSNorm((1168,), eps=1e-05, elementwise_affine=True)
[rank4]:      (attn_res_proj): AttnResProjection(in_features=1168, out_features=1, bias=False)
[rank4]:      (mlp_res_proj): AttnResProjection(in_features=1168, out_features=1, bias=False)
…
[rank4]:  (lm_head): None
[rank4]:  (final_attn_res_proj): None
[rank4]:  (final_attn_res_norm): None
[rank4]:), skipping this plan entry.
[rank4]:  parallelize_module(
[rank4]:/root/torchtitan_attention_residual/torchtitan/torchtitan/experiments/kimi_linear/parallelize.py:421: UserWarning: Parallelize plan key 'embed_tokens' could not be resolved: no submodule matching token 'embed_tokens' in module KimiLinearAttnResModel(
[rank4]:  (embed_tokens): None
[rank4]:  (layers): ModuleDict(
[rank4]:    (14): KimiAttnResDecoderLayer(
[rank4]:      (self_attn): KimiDeltaAttention(
[rank4]:        (q_proj): Linear(in_features=1168, out_features=1168, bias=False)
[rank4]:        (k_proj): Linear(in_features=1168, out_features=1168, bias=False)
[rank4]:        (v_proj): Linear(in_features=1168, out_features=1168, bias=False)
[rank4]:        (q_conv1d): ShortConvolution(1168, 1168, kernel_size=(4,), stride=(1,), padding=(3,), groups=1168, bias=False, activation=silu, backend=triton)
[rank4]:        (k_conv1d): ShortConvolution(1168, 1168, kernel_size=(4,), stride=(1,), padding=(3,), groups=1168, bias=False, activation=silu, backend=triton)
[rank4]:        (v_conv1d): ShortConvolution(1168, 1168, kernel_size=(4,), stride=(1,), padding=(3,), groups=1168, bias=False, activation=silu, backend=triton)
[rank4]:        (f_a_proj): Linear(in_features=1168, out_features=73, bias=False)
[rank4]:        (f_b_proj): Linear(in_features=73, out_features=1168, bias=False)
[rank4]:        (g_a_proj): Linear(in_features=1168, out_features=73, bias=False)
[rank4]:        (g_b_proj): Linear(in_features=73, out_features=1168, bias=False)
[rank4]:        (b_proj): Linear(in_features=1168, out_features=16, bias=False)
[rank4]:        (o_norm): FusedRMSNormGated(73, eps=1e-05, activation=sigmoid)
[rank4]:        (o_proj): Linear(in_features=1168, out_features=1168, bias=False)
[rank4]:      )
[rank4]:      (ffn): KimiMoE(
[rank4]:        (_moe): MoE(
[rank4]:          (experts): GroupedExperts()
[rank4]:          (router): TokenChoiceTopKRouter(
[rank4]:            (gate): Linear(in_features=1168, out_features=32, bias=False)
[rank4]:          )
[rank4]:          (reorderer): TokenReorderer()
[rank4]:          (shared_experts): FeedForward(
[rank4]:            (w1): Linear(in_features=1168, out_features=528, bias=False)
[rank4]:            (w2): Linear(in_features=528, out_features=1168, bias=False)
[rank4]:            (w3): Linear(in_features=1168, out_features=528, bias=False)
[rank4]:          )
[rank4]:        )
[rank4]:      )
[rank4]:      (input_layernorm): RMSNorm((1168,), eps=1e-05, elementwise_affine=True)
[rank4]:      (post_attention_layernorm): RMSNorm((1168,), eps=1e-05, elementwise_affine=True)
[rank4]:      (attn_res_proj): AttnResProjection(in_features=1168, out_features=1, bias=False)
[rank4]:      (mlp_res_proj): AttnResProjection(in_features=1168, out_features=1, bias=False)
[rank4]:      (attn_res_norm): RMSNorm((1168,), eps=1e-05, elementwise_affine=True)
[rank4]:      (mlp_res_norm): RMSNorm((1168,), eps=1e-05, elementwise_affine=True)
[rank4]:    )
[rank4]:    (15): KimiAttnResDecoderLayer(
[rank4]:      (self_attn): KimiMLAAttention(
[rank4]:        (q_proj): Linear(in_features=1168, out_features=1744, bias=False)
[rank4]:        (kv_a_proj_with_mqa): Linear(in_features=1168, out_features=620, bias=False)
[rank4]:        (kv_a_layernorm): RMSNorm((584,), eps=1e-05, elementwise_affine=True)
[rank4]:        (kv_b_proj): Linear(in_features=584, out_features=2336, bias=False)
[rank4]:        (o_proj): Linear(in_features=1168, out_features=1168, bias=False)
[rank4]:        (inner_attention): KimiMLAInnerAttention()
[rank4]:      )
[rank4]:      (ffn): KimiMoE(
[rank4]:        (_moe): MoE(
[rank4]:          (experts): GroupedExperts()
[rank4]:          (router): TokenChoiceTopKRouter(
[rank4]:            (gate): Linear(in_features=1168, out_features=32, bias=False)
[rank4]:          )
[rank4]:          (reorderer): TokenReorderer()
[rank4]:          (shared_experts): FeedForward(
[rank4]:            (w1): Linear(in_features=1168, out_features=528, bias=False)
[rank4]:            (w2): Linear(in_features=528, out_features=1168, bias=False)
[rank4]:            (w3): Linear(in_features=1168, out_features=528, bias=False)
[rank4]:          )
[rank4]:        )
[rank4]:      )
[rank4]:      (input_layernorm): RMSNorm((1168,), eps=1e-05, elementwise_affine=True)
[rank4]:      (post_attention_layernorm): RMSNorm((1168,), eps=1e-05, elementwise_affine=True)
[rank4]:      (attn_res_proj): AttnResProjection(in_features=1168, out_features=1, bias=False)
[rank4]:      (mlp_res_proj): AttnResProjection(in_features=1168, out_features=1, bias=False)
[rank4]:      (attn_res_norm): RMSNorm((1168,), eps=1e-05, elementwise_affine=True)
[rank4]:      (mlp_res_norm): RMSNorm((1168,), eps=1e-05, elementwise_affine=True)
[rank4]:    )
[rank4]:  )
[rank4]:  (norm): RMSNorm((1168,), eps=1e-05, elementwise_affine=True)
[rank4]:  (lm_head): Linear(in_features=1168, out_features=163840, bias=False)
[rank4]:  (final_attn_res_proj): AttnResProjection(in_features=1168, out_features=1, bias=False)
[rank4]:  (final_attn_res_norm): RMSNorm((1168,), eps=1e-05, elementwise_affine=True)
[rank4]:), skipping this plan entry.
[rank4]:  parallelize_module(
[rank4]:[titan] 2026-05-03 08:48:27,561 - root - WARNING - [31mPipeline Parallel loss is not visible. Please add [33mrank 4[31m to LOG_RANK environment variable in run_train.sh.[39m
…
[rank4]:[titan] 2026-05-03 18:22:30,756 - root - INFO - PP rank 1 is building stage_idx 1 with modules ['layers.2', 'layers.3']
[rank4]:[titan] 2026-05-03 18:22:30,773 - root - INFO - PP rank 1 is building stage_idx 3 with modules ['layers.6', 'layers.7']
[rank4]:/root/torchtitan_attention_residual/torchtitan/torchtitan/experiments/kimi_linear/parallelize.py:421: UserWarning: Parallelize plan key 'embed_tokens' could not be resolved: no submodule matching token 'embed_tokens' in module KimiLinearAttnResModel(
[rank4]:  (embed_tokens): None
[rank4]:  (layers): ModuleDict(
[rank4]:    (2): KimiAttnResDecoderLayer(
[rank4]:      (self_attn): KimiDeltaAttention(
[rank4]:        (q_proj): Linear(in_features=1168, out_features=1168, bias=False)
[rank4]:        (k_proj): Linear(in_features=1168, out_features=1168, bias=False)
[rank4]:        (v_proj): Linear(in_features=1168, out_features=1168, bias=False)
[rank4]:        (q_conv1d): ShortConvolution(1168, 1168, kernel_size=(4,), stride=(1,), padding=(3,), groups=1168, bias=False, activation=silu, backend=triton)
[rank4]:        (k_conv1d): ShortConvolution(1168, 1168, kernel_size=(4,), stride=(1,), padding=(3,), groups=1168, bias=False, activation=silu, backend=triton)
[rank4]:        (v_conv1d): ShortConvolution(1168, 1168, kernel_size=(4,), stride=(1,), padding=(3,), groups=1168, bias=False, activation=silu, backend=triton)
[rank4]:        (f_a_proj): Linear(in_features=1168, out_features=73, bias=False)
[rank4]:        (f_b_proj): Linear(in_features=73, out_features=1168, bias=False)
[rank4]:        (g_a_proj): Linear(in_features=1168, out_features=73, bias=False)
[rank4]:        (g_b_proj): Linear(in_features=73, out_features=1168, bias=False)
[rank4]:        (b_proj): Linear(in_features=1168, out_features=16, bias=False)
[rank4]:        (o_norm): FusedRMSNormGated(73, eps=1e-05, activation=sigmoid)
[rank4]:        (o_proj): Linear(in_features=1168, out_features=1168, bias=False)
[rank4]:      )
[rank4]:      (ffn): KimiMoE(
[rank4]:        (_moe): MoE(
[rank4]:          (experts): GroupedExperts()
[rank4]:          (router): TokenChoiceTopKRouter(
[rank4]:            (gate): Linear(in_features=1168, out_features=32, bias=False)
[rank4]:          )
[rank4]:          (reorderer): TokenReorderer()
[rank4]:          (shared_experts): FeedForward(
[rank4]:            (w1): Linear(in_features=1168, out_features=528, bias=False)
[rank4]:            (w2): Linear(in_features=528, out_features=1168, bias=False)
[rank4]:            (w3): Linear(in_features=1168, out_features=528, bias=False)
[rank4]:          )
[rank4]:[titan] 2026-05-03 18:22:30,790 - root - INFO - PP rank 1 is building stage_idx 5 with modules ['layers.10', 'layers.11']
[rank4]:[titan] 2026-05-03 18:22:30,807 - root - INFO - PP rank 1 is building stage_idx 7 with modules ['layers.14', 'layers.15', 'norm', 'lm_head', 'final_attn_res_proj', 'final_attn_res_norm']
[rank4]:        )
…
[rank4]:[titan] 2026-05-03 18:22:30,876 - root - INFO - Applied DSv3-style TP plan tp_degree=2.
[rank4]:      (mlp_res_proj): AttnResProjection(in_features=1168, out_features=1, bias=False)
[rank4]:[titan] 2026-05-03 18:22:30,878 - root - INFO - Compiled each KimiDecoderLayer with torch.compile (backend=inductor).
[rank4]:      (attn_res_norm): RMSNorm((1168,), eps=1e-05, elementwise_affine=True)
[rank4]:      (mlp_res_norm): RMSNorm((1168,), eps=1e-05, elementwise_affine=True)
[rank4]:    )
[rank4]:    (3): KimiAttnResDecoderLayer(
[rank4]:      (self_attn): KimiMLAAttention(
[rank4]:        (q_proj): Linear(in_features=1168, out_features=1744, bias=False)
[rank4]:        (kv_a_proj_with_mqa): Linear(in_features=1168, out_features=620, bias=False)
[rank4]:        (kv_a_layernorm): RMSNorm((584,), eps=1e-05, elementwise_affine=True)
[rank4]:        (kv_b_proj): Linear(in_features=584, out_features=2336, bias=False)
[rank4]:        (o_proj): Linear(in_features=1168, out_features=1168, bias=False)
[rank4]:        (inner_attention): KimiMLAInnerAttention()
[rank4]:      )
[rank4]:      (ffn): KimiMoE(
[rank4]:        (_moe): MoE(
[rank4]:          (experts): GroupedExperts()
[rank4]:          (router): TokenChoiceTopKRouter(
[rank4]:            (gate): Linear(in_features=1168, out_features=32, bias=False)
[rank4]:          )
[rank4]:          (reorderer): TokenReorderer()
[rank4]:          (shared_experts): FeedForward(
[rank4]:            (w1): Linear(in_features=1168, out_features=528, bias=False)
[rank4]:            (w2): Linear(in_features=528, out_features=1168, bias=False)
[rank4]:            (w3): Linear(in_features=1168, out_features=528, bias=False)
[rank4]:          )
[rank4]:        )
[rank4]:      )
[rank4]:      (input_layernorm): RMSNorm((1168,), eps=1e-05, elementwise_affine=True)
[rank4]:      (post_attention_layernorm): RMSNorm((1168,), eps=1e-05, elementwise_affine=True)
[rank4]:      (attn_res_proj): AttnResProjection(in_features=1168, out_features=1, bias=False)
[rank4]:      (mlp_res_proj): AttnResProjection(in_features=1168, out_features=1, bias=False)
…
[rank4]:  (norm): None
[rank4]:  (lm_head): None
[rank4]:  (final_attn_res_proj): None
[rank4]:  (final_attn_res_norm): None
[rank4]:), skipping this plan entry.
[rank4]:  parallelize_module(
[rank4]:/root/torchtitan_attention_residual/torchtitan/torchtitan/experiments/kimi_linear/parallelize.py:421: UserWarning: Parallelize plan key 'lm_head' could not be resolved: no submodule matching token 'lm_head' in module KimiLinearAttnResModel(
[rank4]:  (embed_tokens): None
[rank4]:  (layers): ModuleDict(
[rank4]:    (2): KimiAttnResDecoderLayer(
[rank4]:      (self_attn): KimiDeltaAttention(
[rank4]:        (q_proj): Linear(in_features=1168, out_features=1168, bias=False)
[rank4]:        (k_proj): Linear(in_features=1168, out_features=1168, bias=False)
[rank4]:        (v_proj): Linear(in_features=1168, out_features=1168, bias=False)
[rank4]:        (q_conv1d): ShortConvolution(1168, 1168, kernel_size=(4,), stride=(1,), padding=(3,), groups=1168, bias=False, activation=silu, backend=triton)
[rank4]:        (k_conv1d): ShortConvolution(1168, 1168, kernel_size=(4,), stride=(1,), padding=(3,), groups=1168, bias=False, activation=silu, backend=triton)
[rank4]:        (v_conv1d): ShortConvolution(1168, 1168, kernel_size=(4,), stride=(1,), padding=(3,), groups=1168, bias=False, activation=silu, backend=triton)
[rank4]:        (f_a_proj): Linear(in_features=1168, out_features=73, bias=False)
[rank4]:[titan] 2026-05-03 20:05:35,186 - root - INFO - TensorBoard logging enabled. Logs will be saved at /root/torchtitan_attention_residual/phase5/runs/v10_3d_lbs28_continue_8gpu_from_p4_step8000/tb/20260503-2005
[rank4]:        (f_b_proj): Linear(in_features=73, out_features=1168, bias=False)
[rank4]:        (g_a_proj): Linear(in_features=1168, out_features=73, bias=False)
[rank4]:        (g_b_proj): Linear(in_features=73, out_features=1168, bias=False)
[rank4]:[titan] 2026-05-03 20:05:35,187 - root - INFO - CUDA capacity: NVIDIA GeForce RTX 5090 with 31.36GiB memory
[rank4]:[titan] 2026-05-03 20:05:35,190 - root - WARNING - Error running lspci: [Errno 2] No such file or directory: 'lspci', fallback to use device_name
[rank4]:        (b_proj): Linear(in_features=1168, out_features=16, bias=False)
[rank4]:        (o_norm): FusedRMSNormGated(73, eps=1e-05, activation=sigmoid)
[rank4]:        (o_proj): Linear(in_features=1168, out_features=1168, bias=False)
[rank4]:[titan] 2026-05-03 20:05:35,190 - root - WARNING - Peak flops undefined for: NVIDIA GeForce RTX 5090, fallback to A100
[rank4]:[titan] 2026-05-03 20:05:35,190 - root - INFO - [34mModel kimi_linear kimi_linear_436m_block_attn_res_n4 [31msize: 1,201,640,636 total parameters[39m
[rank4]:[titan] 2026-05-03 20:05:35,190 - root - INFO - Compiling the loss function with torch.compile
…
[rank4]:[titan] 2026-05-03 20:05:35,238 - root - INFO - PP rank 1 is building stage_idx 3 with modules ['layers.6', 'layers.7']
[rank4]:        (_moe): MoE(
[rank4]:[titan] 2026-05-03 20:05:35,256 - root - INFO - PP rank 1 is building stage_idx 5 with modules ['layers.10', 'layers.11']
[rank4]:          (experts): GroupedExperts()
[rank4]:[titan] 2026-05-03 20:05:35,273 - root - INFO - PP rank 1 is building stage_idx 7 with modules ['layers.14', 'layers.15', 'norm', 'lm_head', 'final_attn_res_proj', 'final_attn_res_norm']
[rank4]:          (router): TokenChoiceTopKRouter(
[rank4]:            (gate): Linear(in_features=1168, out_features=32, bias=False)
[rank4]:          )
[rank4]:          (reorderer): TokenReorderer()
[rank4]:          (shared_experts): FeedForward(
[rank4]:            (w1): Linear(in_features=1168, out_features=528, bias=False)
[rank4]:            (w2): Linear(in_features=528, out_features=1168, bias=False)
[rank4]:            (w3): Linear(in_features=1168, out_features=528, bias=False)
[rank4]:          )
[rank4]:        )
[rank4]:      )
[rank4]:      (input_layernorm): RMSNorm((1168,), eps=1e-05, elementwise_affine=True)
[rank4]:      (post_attention_layernorm): RMSNorm((1168,), eps=1e-05, elementwise_affine=True)
[rank4]:      (attn_res_proj): AttnResProjection(in_features=1168, out_features=1, bias=False)
[rank4]:      (mlp_res_proj): AttnResProjection(in_features=1168, out_features=1, bias=False)
[rank4]:      (attn_res_norm): RMSNorm((1168,), eps=1e-05, elementwise_affine=True)
[rank4]:      (mlp_res_norm): RMSNorm((1168,), eps=1e-05, elementwise_affine=True)
[rank4]:    )
[rank4]:    (3): KimiAttnResDecoderLayer(
[rank4]:      (self_attn): KimiMLAAttention(
[rank4]:        (q_proj): Linear(in_features=1168, out_features=1744, bias=False)
[rank4]:        (kv_a_proj_with_mqa): Linear(in_features=1168, out_features=620, bias=False)
[rank4]:        (kv_a_layernorm): RMSNorm((584,), eps=1e-05, elementwise_affine=True)
[rank4]:        (kv_b_proj): Linear(in_features=584, out_features=2336, bias=False)
[rank4]:        (o_proj): Linear(in_features=1168, out_features=1168, bias=False)
[rank4]:        (inner_attention): KimiMLAInnerAttention()
[rank4]:      )
[rank4]:      (ffn): KimiMoE(
[rank4]:        (_moe): MoE(
[rank4]:          (experts): GroupedExperts()
[rank4]:          (router): TokenChoiceTopKRouter(
[rank4]:            (gate): Linear(in_features=1168, out_features=32, bias=False)
[rank4]:          )
[rank4]:          (reorderer): TokenReorderer()
[rank4]:          (shared_experts): FeedForward(
[rank4]:            (w1): Linear(in_features=1168, out_features=528, bias=False)
[rank4]:            (w2): Linear(in_features=528, out_features=1168, bias=False)
[rank4]:            (w3): Linear(in_features=1168, out_features=528, bias=False)
[rank4]:          )
[rank4]:        )
[rank4]:      )
[rank4]:      (input_layernorm): RMSNorm((1168,), eps=1e-05, elementwise_affine=True)
[rank4]:      (post_attention_layernorm): RMSNorm((1168,), eps=1e-05, elementwise_affine=True)
[rank4]:      (attn_res_proj): AttnResProjection(in_features=1168, out_features=1, bias=False)
[rank4]:      (mlp_res_proj): AttnResProjection(in_features=1168, out_features=1, bias=False)
…
