…
[rank4]:[titan] 2026-05-03 19:11:10,005 - root - INFO - PP rank 1 is building stage_idx 1 with modules ['layers.2', 'layers.3']
[rank4]:[titan] 2026-05-03 19:11:10,023 - root - INFO - PP rank 1 is building stage_idx 3 with modules ['layers.6', 'layers.7']
[rank4]:/root/torchtitan_attention_residual/torchtitan/torchtitan/experiments/kimi_linear/parallelize.py:421: UserWarning: Parallelize plan key 'embed_tokens' could not be resolved: no submodule matching token 'embed_tokens' in module KimiLinearAttnResModel(
[rank4]:  (embed_tokens): None
[rank4]:  (layers): ModuleDict(
[rank4]:    (2): KimiAttnResDecoderLayer(
[rank4]:      (self_attn): KimiDeltaAttention(
[rank4]:        (q_proj): Linear(in_features=1168, out_features=1168, bias=False)
[rank4]:        (k_proj): Linear(in_features=1168, out_features=1168, bias=False)
[rank4]:        (v_proj): Linear(in_features=1168, out_features=1168, bias=False)
[rank4]:        (q_conv1d): ShortConvolution(1168, 1168, kernel_size=(4,), stride=(1,), padding=(3,), groups=1168, bias=False, activation=silu, backend=triton)
[rank4]:        (k_conv1d): ShortConvolution(1168, 1168, kernel_size=(4,), stride=(1,), padding=(3,), groups=1168, bias=False, activation=silu, backend=triton)
[rank4]:        (v_conv1d): ShortConvolution(1168, 1168, kernel_size=(4,), stride=(1,), padding=(3,), groups=1168, bias=False, activation=silu, backend=triton)
[rank4]:        (f_a_proj): Linear(in_features=1168, out_features=73, bias=False)
[rank4]:        (f_b_proj): Linear(in_features=73, out_features=1168, bias=False)
[rank4]:        (g_a_proj): Linear(in_features=1168, out_features=73, bias=False)
[rank4]:        (g_b_proj): Linear(in_features=73, out_features=1168, bias=False)
[rank4]:        (b_proj): Linear(in_features=1168, out_features=16, bias=False)
[rank4]:        (o_norm): FusedRMSNormGated(73, eps=1e-05, activation=sigmoid)
[rank4]:        (o_proj): Linear(in_features=1168, out_features=1168, bias=False)
[rank4]:      )
[rank4]:      (ffn): KimiMoE(
[rank4]:        (_moe): MoE(
[rank4]:          (experts): GroupedExperts()
[rank4]:          (router): TokenChoiceTopKRouter(
[rank4]:            (gate): Linear(in_features=1168, out_features=32, bias=False)
[rank4]:          )
[rank4]:          (reorderer): TokenReorderer()
[rank4]:          (shared_experts): FeedForward(
[rank4]:            (w1): Linear(in_features=1168, out_features=528, bias=False)
[rank4]:            (w2): Linear(in_features=528, out_features=1168, bias=False)
[rank4]:            (w3): Linear(in_features=1168, out_features=528, bias=False)
[rank4]:          )
[rank4]:        )
[rank4]:      )
[rank4]:      (input_layernorm): RMSNorm((1168,), eps=1e-05, elementwise_affine=True)
[rank4]:      (post_attention_layernorm): RMSNorm((1168,), eps=1e-05, elementwise_affine=True)
[rank4]:      (attn_res_proj): AttnResProjection(in_features=1168, out_features=1, bias=False)
[rank4]:      (mlp_res_proj): AttnResProjection(in_features=1168, out_features=1, bias=False)
[rank4]:      (attn_res_norm): RMSNorm((1168,), eps=1e-05, elementwise_affine=True)
[rank4]:      (mlp_res_norm): RMSNorm((1168,), eps=1e-05, elementwise_affine=True)
[rank4]:    )
[rank4]:    (3): KimiAttnResDecoderLayer(
[rank4]:      (self_attn): KimiMLAAttention(
[rank4]:        (q_proj): Linear(in_features=1168, out_features=1744, bias=False)
[rank4]:[titan] 2026-05-03 19:11:10,040 - root - INFO - PP rank 1 is building stage_idx 5 with modules ['layers.10', 'layers.11']
[rank4]:[titan] 2026-05-03 19:11:10,057 - root - INFO - PP rank 1 is building stage_idx 7 with modules ['layers.14', 'layers.15', 'norm', 'lm_head', 'final_attn_res_proj', 'final_attn_res_norm']
[rank4]:        (kv_a_proj_with_mqa): Linear(in_features=1168, out_features=620, bias=False)
[rank4]:[titan] 2026-05-03 19:11:10,081 - root - INFO - Applied DSv3-style TP plan tp_degree=2.
[rank4]:        (kv_a_layernorm): RMSNorm((584,), eps=1e-05, elementwise_affine=True)
[rank4]:[titan] 2026-05-03 19:11:10,084 - root - INFO - Compiled each KimiDecoderLayer with torch.compile (backend=inductor).
[rank4]:        (kv_b_proj): Linear(in_features=584, out_features=2336, bias=False)
[rank4]:[titan] 2026-05-03 19:11:10,109 - root - INFO - Applied FSDP2 to Kimi Linear model (dp_shard=2, dp_replicate=1).
[rank4]:        (o_proj): Linear(in_features=1168, out_features=1168, bias=False)
[rank4]:[titan] 2026-05-03 19:11:10,114 - root - INFO - Applied DSv3-style TP plan tp_degree=2.
[rank4]:        (inner_attention): KimiMLAInnerAttention()
[rank4]:[titan] 2026-05-03 19:11:10,116 - root - INFO - Compiled each KimiDecoderLayer with torch.compile (backend=inductor).
[rank4]:      )
[rank4]:      (ffn): KimiMoE(
[rank4]:        (_moe): MoE(
[rank4]:          (experts): GroupedExperts()
[rank4]:          (router): TokenChoiceTopKRouter(
[rank4]:            (gate): Linear(in_features=1168, out_features=32, bias=False)
[rank4]:          )
[rank4]:          (reorderer): TokenReorderer()
[rank4]:          (shared_experts): FeedForward(
[rank4]:            (w1): Linear(in_features=1168, out_features=528, bias=False)
[rank4]:            (w2): Linear(in_features=528, out_features=1168, bias=False)
[rank4]:            (w3): Linear(in_features=1168, out_features=528, bias=False)
[rank4]:          )
[rank4]:        )
[rank4]:      )
[rank4]:      (input_layernorm): RMSNorm((1168,), eps=1e-05, elementwise_affine=True)
[rank4]:      (post_attention_layernorm): RMSNorm((1168,), eps=1e-05, elementwise_affine=True)
[rank4]:      (attn_res_proj): AttnResProjection(in_features=1168, out_features=1, bias=False)
[rank4]:      (mlp_res_proj): AttnResProjection(in_features=1168, out_features=1, bias=False)
…
[rank4]:  (lm_head): None
[rank4]:  (final_attn_res_proj): None
[rank4]:  (final_attn_res_norm): None
[rank4]:), skipping this plan entry.
[rank4]:  parallelize_module(
[rank4]:/root/torchtitan_attention_residual/torchtitan/torchtitan/experiments/kimi_linear/parallelize.py:421: UserWarning: Parallelize plan key 'embed_tokens' could not be resolved: no submodule matching token 'embed_tokens' in module KimiLinearAttnResModel(
[rank4]:  (embed_tokens): None
[rank4]:  (layers): ModuleDict(
[rank4]:    (14): KimiAttnResDecoderLayer(
[rank4]:      (self_attn): KimiDeltaAttention(
[rank4]:        (q_proj): Linear(in_features=1168, out_features=1168, bias=False)
[rank4]:        (k_proj): Linear(in_features=1168, out_features=1168, bias=False)
[rank4]:        (v_proj): Linear(in_features=1168, out_features=1168, bias=False)
[rank4]:        (q_conv1d): ShortConvolution(1168, 1168, kernel_size=(4,), stride=(1,), padding=(3,), groups=1168, bias=False, activation=silu, backend=triton)
[rank4]:        (k_conv1d): ShortConvolution(1168, 1168, kernel_size=(4,), stride=(1,), padding=(3,), groups=1168, bias=False, activation=silu, backend=triton)
[rank4]:        (v_conv1d): ShortConvolution(1168, 1168, kernel_size=(4,), stride=(1,), padding=(3,), groups=1168, bias=False, activation=silu, backend=triton)
[rank4]:        (f_a_proj): Linear(in_features=1168, out_features=73, bias=False)
[rank4]:        (f_b_proj): Linear(in_features=73, out_features=1168, bias=False)
[rank4]:        (g_a_proj): Linear(in_features=1168, out_features=73, bias=False)
[rank4]:        (g_b_proj): Linear(in_features=73, out_features=1168, bias=False)
[rank4]:        (b_proj): Linear(in_features=1168, out_features=16, bias=False)
[rank4]:        (o_norm): FusedRMSNormGated(73, eps=1e-05, activation=sigmoid)
[rank4]:        (o_proj): Linear(in_features=1168, out_features=1168, bias=False)
[rank4]:      )
[rank4]:      (ffn): KimiMoE(
[rank4]:        (_moe): MoE(
[rank4]:          (experts): GroupedExperts()
[rank4]:          (router): TokenChoiceTopKRouter(
[rank4]:            (gate): Linear(in_features=1168, out_features=32, bias=False)
[rank4]:          )
[rank4]:          (reorderer): TokenReorderer()
[rank4]:          (shared_experts): FeedForward(
[rank4]:            (w1): Linear(in_features=1168, out_features=528, bias=False)
[rank4]:            (w2): Linear(in_features=528, out_features=1168, bias=False)
[rank4]:            (w3): Linear(in_features=1168, out_features=528, bias=False)
[rank4]:          )
[rank4]:        )
[rank4]:      )
[rank4]:      (input_layernorm): RMSNorm((1168,), eps=1e-05, elementwise_affine=True)
[rank4]:      (post_attention_layernorm): RMSNorm((1168,), eps=1e-05, elementwise_affine=True)
[rank4]:      (attn_res_proj): AttnResProjection(in_features=1168, out_features=1, bias=False)
[rank4]:      (mlp_res_proj): AttnResProjection(in_features=1168, out_features=1, bias=False)
[rank4]:      (attn_res_norm): RMSNorm((1168,), eps=1e-05, elementwise_affine=True)
[rank4]:      (mlp_res_norm): RMSNorm((1168,), eps=1e-05, elementwise_affine=True)
[rank4]:    )
[rank4]:    (15): KimiAttnResDecoderLayer(
[rank4]:      (self_attn): KimiMLAAttention(
[rank4]:        (q_proj): Linear(in_features=1168, out_features=1744, bias=False)
[rank4]:        (kv_a_proj_with_mqa): Linear(in_features=1168, out_features=620, bias=False)
[rank4]:        (kv_a_layernorm): RMSNorm((584,), eps=1e-05, elementwise_affine=True)
[rank4]:        (kv_b_proj): Linear(in_features=584, out_features=2336, bias=False)
[rank4]:        (o_proj): Linear(in_features=1168, out_features=1168, bias=False)
[rank4]:        (inner_attention): KimiMLAInnerAttention()
[rank4]:      )
[rank4]:      (ffn): KimiMoE(
[rank4]:        (_moe): MoE(
[rank4]:          (experts): GroupedExperts()
[rank4]:          (router): TokenChoiceTopKRouter(
[rank4]:            (gate): Linear(in_features=1168, out_features=32, bias=False)
[rank4]:          )
[rank4]:          (reorderer): TokenReorderer()
[rank4]:          (shared_experts): FeedForward(
[rank4]:            (w1): Linear(in_features=1168, out_features=528, bias=False)
[rank4]:            (w2): Linear(in_features=528, out_features=1168, bias=False)
[rank4]:            (w3): Linear(in_features=1168, out_features=528, bias=False)
[rank4]:          )
[rank4]:        )
[rank4]:      )
[rank4]:      (input_layernorm): RMSNorm((1168,), eps=1e-05, elementwise_affine=True)
[rank4]:      (post_attention_layernorm): RMSNorm((1168,), eps=1e-05, elementwise_affine=True)
[rank4]:      (attn_res_proj): AttnResProjection(in_features=1168, out_features=1, bias=False)
[rank4]:      (mlp_res_proj): AttnResProjection(in_features=1168, out_features=1, bias=False)
[rank4]:      (attn_res_norm): RMSNorm((1168,), eps=1e-05, elementwise_affine=True)
[rank4]:      (mlp_res_norm): RMSNorm((1168,), eps=1e-05, elementwise_affine=True)
[rank4]:    )
[rank4]:  )
[rank4]:  (norm): RMSNorm((1168,), eps=1e-05, elementwise_affine=True)
[rank4]:  (lm_head): Linear(in_features=1168, out_features=163840, bias=False)
[rank4]:  (final_attn_res_proj): AttnResProjection(in_features=1168, out_features=1, bias=False)
[rank4]:  (final_attn_res_norm): RMSNorm((1168,), eps=1e-05, elementwise_affine=True)
[rank4]:), skipping this plan entry.
[rank4]:  parallelize_module(
[rank4]:[titan] 2026-05-03 19:11:10,267 - root - WARNING - [31mPipeline Parallel loss is not visible. Please add [33mrank 4[31m to LOG_RANK environment variable in run_train.sh.[39m
…
