…
[rank4]:[titan] 2026-05-09 21:17:19,670 - root - INFO - PP rank 1 is building stage_idx 7 with modules ['layers.14', 'layers.15', 'norm', 'lm_head', 'final_attn_res_proj', 'final_attn_res_norm']
[rank4]:[titan] 2026-05-09 21:17:19,694 - root - INFO - Applied DSv3-style TP plan tp_degree=2.
[rank4]:/usr/local/lib/python3.12/dist-packages/torch/distributed/tensor/parallel/api.py:108: UserWarning: Parallelize plan key 'embed_tokens' could not be resolved: no submodule matching token 'embed_tokens' in module KimiLinearAttnResModel(
[rank4]:  (embed_tokens): None
[rank4]:  (layers): ModuleDict(
[rank4]:    (2): KimiAttnResDecoderLayer(
[rank4]:      (self_attn): KimiDeltaAttention(
[rank4]:        (q_proj): Linear(in_features=1024, out_features=1024, bias=False)
[rank4]:        (k_proj): Linear(in_features=1024, out_features=1024, bias=False)
[rank4]:        (v_proj): Linear(in_features=1024, out_features=1024, bias=False)
[rank4]:        (q_conv1d): ShortConvolution(1024, 1024, kernel_size=(4,), stride=(1,), padding=(3,), groups=1024, bias=False, activation=silu, backend=triton)
[rank4]:        (k_conv1d): ShortConvolution(1024, 1024, kernel_size=(4,), stride=(1,), padding=(3,), groups=1024, bias=False, activation=silu, backend=triton)
[rank4]:        (v_conv1d): ShortConvolution(1024, 1024, kernel_size=(4,), stride=(1,), padding=(3,), groups=1024, bias=False, activation=silu, backend=triton)
[rank4]:        (f_a_proj): Linear(in_features=1024, out_features=64, bias=False)
[rank4]:        (f_b_proj): Linear(in_features=64, out_features=1024, bias=False)
[rank4]:        (g_a_proj): Linear(in_features=1024, out_features=64, bias=False)
[rank4]:        (g_b_proj): Linear(in_features=64, out_features=1024, bias=False)
[rank4]:        (b_proj): Linear(in_features=1024, out_features=16, bias=False)
[rank4]:        (o_norm): FusedRMSNormGated(64, eps=1e-05, activation=sigmoid)
[rank4]:        (o_proj): Linear(in_features=1024, out_features=1024, bias=False)
[rank4]:      )
[rank4]:      (ffn): KimiMoE(
[rank4]:        (_moe): MoE(
[rank4]:          (experts): GroupedExperts()
[rank4]:          (router): TokenChoiceTopKRouter(
[rank4]:            (gate): Linear(in_features=1024, out_features=32, bias=False)
[rank4]:          )
[rank4]:          (reorderer): TokenReorderer()
[rank4]:          (shared_experts): FeedForward(
[rank4]:            (w1): Linear(in_features=1024, out_features=768, bias=False)
[rank4]:            (w2): Linear(in_features=768, out_features=1024, bias=False)
[rank4]:            (w3): Linear(in_features=1024, out_features=768, bias=False)
[rank4]:          )
[rank4]:        )
[rank4]:      )
[rank4]:      (input_layernorm): RMSNorm((1024,), eps=1e-05, elementwise_affine=True)
[rank4]:      (post_attention_layernorm): RMSNorm((1024,), eps=1e-05, elementwise_affine=True)
[rank4]:      (attn_res_proj): AttnResProjection(in_features=1024, out_features=1, bias=False)
[rank4]:      (mlp_res_proj): AttnResProjection(in_features=1024, out_features=1, bias=False)
[rank4]:      (attn_res_norm): RMSNorm((1024,), eps=1e-05, elementwise_affine=True)
[rank4]:      (mlp_res_norm): RMSNorm((1024,), eps=1e-05, elementwise_affine=True)
[rank4]:    )
[rank4]:    (3): KimiAttnResDecoderLayer(
[rank4]:      (self_attn): KimiMLAAttention(
[rank4]:        (q_proj): Linear(in_features=1024, out_features=1536, bias=False)
[rank4]:        (kv_a_proj_with_mqa): Linear(in_features=1024, out_features=544, bias=False)
[rank4]:        (kv_a_layernorm): RMSNorm((512,), eps=1e-05, elementwise_affine=True)
[rank4]:        (kv_b_proj): Linear(in_features=512, out_features=2048, bias=False)
[rank4]:        (o_proj): Linear(in_features=1024, out_features=1024, bias=False)
[rank4]:        (inner_attention): KimiMLAInnerAttention()
[rank4]:      )
[rank4]:      (ffn): KimiMoE(
[rank4]:        (_moe): MoE(
[rank4]:          (experts): GroupedExperts()
[rank4]:          (router): TokenChoiceTopKRouter(
[rank4]:            (gate): Linear(in_features=1024, out_features=32, bias=False)
[rank4]:          )
[rank4]:          (reorderer): TokenReorderer()
[rank4]:          (shared_experts): FeedForward(
[rank4]:            (w1): Linear(in_features=1024, out_features=768, bias=False)
[rank4]:            (w2): Linear(in_features=768, out_features=1024, bias=False)
[rank4]:            (w3): Linear(in_features=1024, out_features=768, bias=False)
[rank4]:          )
[rank4]:        )
[rank4]:      )
[rank4]:      (input_layernorm): RMSNorm((1024,), eps=1e-05, elementwise_affine=True)
[rank4]:      (post_attention_layernorm): RMSNorm((1024,), eps=1e-05, elementwise_affine=True)
[rank4]:      (attn_res_proj): AttnResProjection(in_features=1024, out_features=1, bias=False)
[rank4]:      (mlp_res_proj): AttnResProjection(in_features=1024, out_features=1, bias=False)
…
